…
2024-09-12 13:53:32 [38,097ms] [Warning] [omni.kvdb.plugin] Disabling key-value database because another kit process is locking it
[120.856s] app ready
[134.594s] Simulation App Startup Complete
[2024-09-12 21:55:17,244][INFO] /ssd/xiaxinyuan/code/w61-grutopia/grutopia/core/runner.py[line:49] -: rendering interval: 5
[2024-09-12 21:55:24,575][INFO] /ssd/xiaxinyuan/code/w61-grutopia/grutopia/core/task/task.py[line:71] -: scene_path: ../Matterport3D/data/v1/scans/5LpN3gDmAk7/matterport_mesh/9c6b166997ae486f96d011c1de0b3427/isaacsim_9c6b166997ae486f96d011c1de0b3427.usd
ActorCritic.__init__ got unexpected arguments, which will be ignored: ['class_name']
Actor MLP: Sequential(
  (0): Linear(in_features=471, out_features=1024, bias=True)
  (1): ELU(alpha=1.0)
  (2): Linear(in_features=1024, out_features=512, bias=True)
  (3): ELU(alpha=1.0)
  (4): Linear(in_features=512, out_features=256, bias=True)
  (5): ELU(alpha=1.0)
  (6): Linear(in_features=256, out_features=19, bias=True)
)
Critic MLP: Sequential(
  (0): Linear(in_features=471, out_features=1024, bias=True)
  (1): ELU(alpha=1.0)
  (2): Linear(in_features=1024, out_features=512, bias=True)
  (3): ELU(alpha=1.0)
  (4): Linear(in_features=512, out_features=256, bias=True)
  (5): ELU(alpha=1.0)
  (6): Linear(in_features=256, out_features=1, bias=True)
)
ActorCritic.__init__ got unexpected arguments, which will be ignored: ['class_name']
Actor MLP: Sequential(
  (0): Linear(in_features=471, out_features=1024, bias=True)
  (1): ELU(alpha=1.0)
  (2): Linear(in_features=1024, out_features=512, bias=True)
  (3): ELU(alpha=1.0)
  (4): Linear(in_features=512, out_features=256, bias=True)
  (5): ELU(alpha=1.0)
  (6): Linear(in_features=256, out_features=19, bias=True)
)
Critic MLP: Sequential(
  (0): Linear(in_features=471, out_features=1024, bias=True)
  (1): ELU(alpha=1.0)
  (2): Linear(in_features=1024, out_features=512, bias=True)
  (3): ELU(alpha=1.0)
  (4): Linear(in_features=512, out_features=256, bias=True)
  (5): ELU(alpha=1.0)
  (6): Linear(in_features=256, out_features=1, bias=True)
)
ActorCritic.__init__ got unexpected arguments, which will be ignored: ['class_name']
Actor MLP: Sequential(
  (0): Linear(in_features=471, out_features=1024, bias=True)
  (1): ELU(alpha=1.0)
  (2): Linear(in_features=1024, out_features=512, bias=True)
  (3): ELU(alpha=1.0)
  (4): Linear(in_features=512, out_features=256, bias=True)
  (5): ELU(alpha=1.0)
  (6): Linear(in_features=256, out_features=19, bias=True)
)
Critic MLP: Sequential(
  (0): Linear(in_features=471, out_features=1024, bias=True)
  (1): ELU(alpha=1.0)
  (2): Linear(in_features=1024, out_features=512, bias=True)
  (3): ELU(alpha=1.0)
  (4): Linear(in_features=512, out_features=256, bias=True)
  (5): ELU(alpha=1.0)
  (6): Linear(in_features=256, out_features=1, bias=True)
)
ActorCritic.__init__ got unexpected arguments, which will be ignored: ['class_name']
Actor MLP: Sequential(
  (0): Linear(in_features=471, out_features=1024, bias=True)
  (1): ELU(alpha=1.0)
  (2): Linear(in_features=1024, out_features=512, bias=True)
  (3): ELU(alpha=1.0)
  (4): Linear(in_features=512, out_features=256, bias=True)
  (5): ELU(alpha=1.0)
  (6): Linear(in_features=256, out_features=19, bias=True)
)
Critic MLP: Sequential(
  (0): Linear(in_features=471, out_features=1024, bias=True)
  (1): ELU(alpha=1.0)
  (2): Linear(in_features=1024, out_features=512, bias=True)
  (3): ELU(alpha=1.0)
  (4): Linear(in_features=512, out_features=256, bias=True)
  (5): ELU(alpha=1.0)
  (6): Linear(in_features=256, out_features=1, bias=True)
)
ActorCritic.__init__ got unexpected arguments, which will be ignored: ['class_name']
Actor MLP: Sequential(
  (0): Linear(in_features=471, out_features=1024, bias=True)
  (1): ELU(alpha=1.0)
  (2): Linear(in_features=1024, out_features=512, bias=True)
  (3): ELU(alpha=1.0)
  (4): Linear(in_features=512, out_features=256, bias=True)
  (5): ELU(alpha=1.0)
  (6): Linear(in_features=256, out_features=19, bias=True)
)
Critic MLP: Sequential(
  (0): Linear(in_features=471, out_features=1024, bias=True)
  (1): ELU(alpha=1.0)
  (2): Linear(in_features=1024, out_features=512, bias=True)
  (3): ELU(alpha=1.0)
  (4): Linear(in_features=512, out_features=256, bias=True)
  (5): ELU(alpha=1.0)
  (6): Linear(in_features=256, out_features=1, bias=True)
)
ActorCritic.__init__ got unexpected arguments, which will be ignored: ['class_name']
Actor MLP: Sequential(
  (0): Linear(in_features=471, out_features=1024, bias=True)
  (1): ELU(alpha=1.0)
  (2): Linear(in_features=1024, out_features=512, bias=True)
  (3): ELU(alpha=1.0)
  (4): Linear(in_features=512, out_features=256, bias=True)
  (5): ELU(alpha=1.0)
  (6): Linear(in_features=256, out_features=19, bias=True)
)
Critic MLP: Sequential(
  (0): Linear(in_features=471, out_features=1024, bias=True)
  (1): ELU(alpha=1.0)
  (2): Linear(in_features=1024, out_features=512, bias=True)
  (3): ELU(alpha=1.0)
  (4): Linear(in_features=512, out_features=256, bias=True)
  (5): ELU(alpha=1.0)
  (6): Linear(in_features=256, out_features=1, bias=True)
)
2024-09-12 13:55:25 [151,635ms] [Warning] [omni.fabric.plugin] No source has valid data array=0x14fe50c6ad00 usdValid=0 cpuValid=0
2024-09-12 13:55:25 [151,643ms] [Warning] [omni.fabric.plugin] No source has valid data array=0x14fe50a51e80 usdValid=0 cpuValid=0
2024-09-12 13:55:43 [169,678ms] [Warning] [carb] Client omni.hydratexture.plugin has acquired [carb::settings::ISettings v1.0] 100 times. Consider accessing this interface with carb::getCachedInterface() (Performance warning)
…
