…
     "cuda:2"   : "NVIDIA GeForce RTX 4090" (24 GiB, sm_89, mempool enabled)
     "cuda:3"   : "NVIDIA GeForce RTX 4090" (24 GiB, sm_89, mempool enabled)
     "cuda:4"   : "NVIDIA GeForce RTX 4090" (24 GiB, sm_89, mempool enabled)
     "cuda:5"   : "NVIDIA GeForce RTX 4090" (24 GiB, sm_89, mempool enabled)
     "cuda:6"   : "NVIDIA GeForce RTX 4090" (24 GiB, sm_89, mempool enabled)
     "cuda:7"   : "NVIDIA GeForce RTX 4090" (24 GiB, sm_89, mempool enabled)
   CUDA peer access:
     Not supported
   Kernel cache:
     /root/.cache/warp/1.3.1
ActorCritic.__init__ got unexpected arguments, which will be ignored: ['class_name']
Actor MLP: Sequential(
  (0): Linear(in_features=471, out_features=1024, bias=True)
  (1): ELU(alpha=1.0)
  (2): Linear(in_features=1024, out_features=512, bias=True)
  (3): ELU(alpha=1.0)
  (4): Linear(in_features=512, out_features=256, bias=True)
  (5): ELU(alpha=1.0)
  (6): Linear(in_features=256, out_features=19, bias=True)
)
Critic MLP: Sequential(
  (0): Linear(in_features=471, out_features=1024, bias=True)
  (1): ELU(alpha=1.0)
  (2): Linear(in_features=1024, out_features=512, bias=True)
  (3): ELU(alpha=1.0)
  (4): Linear(in_features=512, out_features=256, bias=True)
  (5): ELU(alpha=1.0)
  (6): Linear(in_features=256, out_features=1, bias=True)
)
ActorCritic.__init__ got unexpected arguments, which will be ignored: ['class_name']
Actor MLP: Sequential(
  (0): Linear(in_features=471, out_features=1024, bias=True)
  (1): ELU(alpha=1.0)
  (2): Linear(in_features=1024, out_features=512, bias=True)
  (3): ELU(alpha=1.0)
  (4): Linear(in_features=512, out_features=256, bias=True)
  (5): ELU(alpha=1.0)
  (6): Linear(in_features=256, out_features=19, bias=True)
)
Critic MLP: Sequential(
  (0): Linear(in_features=471, out_features=1024, bias=True)
  (1): ELU(alpha=1.0)
  (2): Linear(in_features=1024, out_features=512, bias=True)
  (3): ELU(alpha=1.0)
  (4): Linear(in_features=512, out_features=256, bias=True)
  (5): ELU(alpha=1.0)
  (6): Linear(in_features=256, out_features=1, bias=True)
)
ActorCritic.__init__ got unexpected arguments, which will be ignored: ['class_name']
Actor MLP: Sequential(
  (0): Linear(in_features=471, out_features=1024, bias=True)
  (1): ELU(alpha=1.0)
  (2): Linear(in_features=1024, out_features=512, bias=True)
  (3): ELU(alpha=1.0)
  (4): Linear(in_features=512, out_features=256, bias=True)
  (5): ELU(alpha=1.0)
  (6): Linear(in_features=256, out_features=19, bias=True)
)
Critic MLP: Sequential(
  (0): Linear(in_features=471, out_features=1024, bias=True)
  (1): ELU(alpha=1.0)
  (2): Linear(in_features=1024, out_features=512, bias=True)
  (3): ELU(alpha=1.0)
  (4): Linear(in_features=512, out_features=256, bias=True)
  (5): ELU(alpha=1.0)
  (6): Linear(in_features=256, out_features=1, bias=True)
)
ActorCritic.__init__ got unexpected arguments, which will be ignored: ['class_name']
Actor MLP: Sequential(
  (0): Linear(in_features=471, out_features=1024, bias=True)
  (1): ELU(alpha=1.0)
  (2): Linear(in_features=1024, out_features=512, bias=True)
  (3): ELU(alpha=1.0)
  (4): Linear(in_features=512, out_features=256, bias=True)
  (5): ELU(alpha=1.0)
  (6): Linear(in_features=256, out_features=19, bias=True)
)
Critic MLP: Sequential(
  (0): Linear(in_features=471, out_features=1024, bias=True)
  (1): ELU(alpha=1.0)
  (2): Linear(in_features=1024, out_features=512, bias=True)
  (3): ELU(alpha=1.0)
  (4): Linear(in_features=512, out_features=256, bias=True)
  (5): ELU(alpha=1.0)
  (6): Linear(in_features=256, out_features=1, bias=True)
)
ActorCritic.__init__ got unexpected arguments, which will be ignored: ['class_name']
Actor MLP: Sequential(
  (0): Linear(in_features=471, out_features=1024, bias=True)
  (1): ELU(alpha=1.0)
  (2): Linear(in_features=1024, out_features=512, bias=True)
  (3): ELU(alpha=1.0)
  (4): Linear(in_features=512, out_features=256, bias=True)
  (5): ELU(alpha=1.0)
  (6): Linear(in_features=256, out_features=19, bias=True)
)
Critic MLP: Sequential(
  (0): Linear(in_features=471, out_features=1024, bias=True)
  (1): ELU(alpha=1.0)
  (2): Linear(in_features=1024, out_features=512, bias=True)
  (3): ELU(alpha=1.0)
  (4): Linear(in_features=512, out_features=256, bias=True)
  (5): ELU(alpha=1.0)
  (6): Linear(in_features=256, out_features=1, bias=True)
)
ActorCritic.__init__ got unexpected arguments, which will be ignored: ['class_name']
Actor MLP: Sequential(
  (0): Linear(in_features=471, out_features=1024, bias=True)
  (1): ELU(alpha=1.0)
  (2): Linear(in_features=1024, out_features=512, bias=True)
  (3): ELU(alpha=1.0)
  (4): Linear(in_features=512, out_features=256, bias=True)
  (5): ELU(alpha=1.0)
  (6): Linear(in_features=256, out_features=19, bias=True)
)
Critic MLP: Sequential(
  (0): Linear(in_features=471, out_features=1024, bias=True)
  (1): ELU(alpha=1.0)
  (2): Linear(in_features=1024, out_features=512, bias=True)
  (3): ELU(alpha=1.0)
  (4): Linear(in_features=512, out_features=256, bias=True)
  (5): ELU(alpha=1.0)
  (6): Linear(in_features=256, out_features=1, bias=True)
)
Topdown camera pose init: (array([ 5.58285   , -2.81789   , -0.57655793], dtype=float32), array([-2.58819067e-01, -3.59183581e-18,  3.59183581e-18,  9.65925820e-01]))
[2024-09-10 14:01:29,551][INFO] /ssd/xiaxinyuan/code/w61-grutopia/vln/src/dataset/data_utils.py[line:395] -: trajectory id 37
[2024-09-10 14:01:29,552][INFO] /ssd/xiaxinyuan/code/w61-grutopia/vln/src/dataset/data_utils.py[line:396] -: Initialized scan s8pcmisQ38h
…
